docs/_static/cnn_data.pth (torch, 9076 bytes, 6 tensors)

l1.0.weight f4 [8, 1, 5, 5]
00000000: 5a10 683d a74d 8e3e 681c 313e 687b ef3d
00000010: bfd2 253e ccc6 273c 7b8e b33e 06f3 e93e
00000020: a08e bf3e 92d5 233f 0276 d03b 5e5e ec3a
00000030: 82ae 653b 45a8 1d3d 65e3 cd3d 7856 66bf
00000040: 6ebb 80bd 7987 bcbc 2353 61bd aa89 39be
00000050: 7c27 0dbf 27cd 39bf d50f 53bf 9ed0 2fbf
00000060: 35de 02bf d31b 8837 f959 f7b9 18dc cfb8
00000070: a830 66b8 bc55 e439 1a9b 3aba 2271 8eba
00000080: d8d4 403a 8343 c439 a306 f639 8335 d9b9
00000090: 0a87 8eb9 78a8 eb39 fdf8 993a eade 2aba
000000a0: e418 25ba 7038 ddb9 83d5 8f39 aa52 fdb8
000000b0: a2b7 73b9 bde2 d839 6bdf b6ba bee5 e33a
000000c0: 9642 12ba 1cec 95b8 203c ccb8 ad27 7d3a
000000d0: 3bfc 253a fc3a f8b9 d46a c339 2b30 0e3a
000000e0: e0df 8ab8 175f 673a 130b 813b a5fe 493b
000000f0: 3040 a4b9 1a91 faba 7aec 393a d892 ed38
00000100: 5701 18bb 0f52 23bb 36fa 52b9 4603 8a3a
00000110: 7e91 2fbb eaa6 5bba fc08 443a f0de 4db9
00000120: a3e2 bf3a ce2b 1aba 4102 1a3b 560c 073c
00000130: 6007 9d39 25ec 0ebc 1ccc 65ba 87ff eebd
00000140: 21bc 403b 35a1 bb3b b36e e33b f605 ea3b
00000150: 6dbe 3c3c fca8 e73b 1398 9c3c 282a 303e
00000160: 6938 913e 8c0c f93d 086b b33b 1cc0 b33e
00000170: 9795 153f 0a10 313f 7162 093f 069f fc3b
00000180: 17f8 d83c 4b69 3a3e f106 503e 4a77 473e
00000190: 38a5 f73a 3cb2 4b3a 8995 803a befe 2e3a
000001a0: fd9d 09bb b87d b4ba 5ac1 14bb 748c 28ba
000001b0: bd7a 203b b03f e5b8 0c4d 62ba 6e3b a6ba
000001c0: 404e b5b7 c927 e3b9 e9c8 91bb 2e2e 9a3a
000001d0: b20d b33a 04fa 103b 0888 693a bd65 b0ba
000001e0: a0a1 9bb8 205a b939 9007 84b8 42a6 7c39
000001f0: 095f edba c6ba 83ba a096 c038 e737 be3a
00000200: 5021 e439 29ae 9b39 8e52 0a3b ee10 cbba
00000210: bf01 d53a c93f 34ba 0c7c ebb8 1762 83bb
00000220: 85f9 acb9 c857 57b9 4e9f 783b 2be7 f63a
00000230: 85c8 323a b018 c9b9 b8cf e8b8 2448 8f39
00000240: d8a4 53ba 354d 173b 41c7 8eba f1e7 dbba
00000250: bd85 b8ba c02b 27bb 3f45 e2ba 3dfc 973a
00000260: c7cc 50ba 98a5 1e3b b3e3 2aba 35c7 83ba
00000270: 817e 113a 32ec cd39 a022 b2ba f016 7eb9
00000280: 8c9c b1b9 b25d 13bb 5d37 fe3a 0a20 703a
00000290: 6b51 76ba dfa9 7339 a697 d1ba 77c6 1aba
000002a0: 445a b33a caef 08ba 67f2 34bb 3054 3039
000002b0: 6d95 2b3b e742 0abb f4d9 86ba e0ea 35b9
000002c0: 7816 8eb9 c73a 5eba 9dd0 213b ec10 0dbb
000002d0: e365 083b 8cec f4b9 5c84 ccba c022 0139
000002e0: 0e60 53b9 5483 09b9 06b6 1b3a 0f52 ee3a
000002f0: 60a7 ec36 491a 30bb 08b0 e3ba cca7 8239
00000300: 459f d43a 5ebd 1fba 90be 5339 e036 3e39
00000310: 7c4f c9ba e08e 263b 8458 2e3a 709f 33b9
0.05665622 0.2779362 0.17295992 0.1169346 0.16193675 0.010240268 0.3506964 0.45693225
0.37413502 0.6399776 0.006361724 0.0018033495 0.0035046642 0.038490552 0.10053138 -0.8997569
-0.062857494 -0.023013817 -0.055010926 -0.18118921 -0.55138373 -0.7257866 -0.8244603 -0.686777
-0.5112031 1.622542e-05 -0.00047178546 -9.911525e-05 -5.4881588e-05 0.00043551426 -0.0007118449 -0.0010867456
0.0007355935 0.00037434333 0.0004692572 -0.00041429335 -0.00027184963 0.00044948212 0.0011747178 -0.0006518202
-0.00062979595 -0.00042194454 0.00027434164 -0.000120793775 -0.00023242694 0.00041367664 -0.0013952082 0.0017387194
-0.000557938 -7.1488525e-05 -9.738677e-05 0.0009657096 0.0006331836 -0.00047346193 0.00037272891 0.00054240477
-6.622053e-05 0.000882612 0.0039380877 0.0030821946 -0.0003132834 -0.001911673 0.00070924277 0.000113283924
-0.0023194158 -0.0024920737 -0.00020120371 0.001052954 -0.00267896 -0.0008379059 0.00074781454 -0.00019633374
0.0014639687 -0.0005881161 0.0023499879 0.008242687 0.00029950868 -0.008723293 -0.00087660714 -0.11669832
0.0029409009 0.0057260045 0.0069406866 0.007141824 0.01152001 0.007069705 0.019115483 0.17203581
0.2836335 0.12160596 0.0054754056 0.35107505 0.5843138 0.691651 0.53665835 0.0077093868
0.026485486 0.18204229 0.20315148 0.19479099 0.0018893844 0.00077703944 0.000981019 0.0006675533
-0.002099871 -0.0013770377 -0.0022698254 -0.00064296206 0.002448722 -0.00010931434 -0.00086326967 -0.0012682506
-2.161332e-05 -0.00043326456 -0.004448999 0.001176303 0.0013660698 0.0022121677 0.0008908515 -0.0013458055
-7.421081e-05 0.00035353098 -6.295659e-05 0.00024094529 -0.0018109988 -0.001005017 9.1833295e-05 0.001451251
0.0004351237 0.00029693663 0.0021106335 -0.0015492716 0.0016251131 -0.000687596 -0.00011228779 -0.004009496
-0.00032992303 -0.00020536699 0.003793675 0.0018837204 0.0006820041 -0.000383561 -0.00011101313 0.00027328834
-0.0008073575 0.002308679 -0.0010893123 -0.0016777498 -0.0014077943 -0.0025508255 -0.0017263069 0.0011595559
-0.00079650845 0.0024207588 -0.0006518915 -0.0010053875 0.00055501616 0.00039276626 -0.0013590641 -0.00024231873
-0.00033876707 -0.0022486267 0.0019395162 0.00091600476 -0.00093962875 0.00023237568 -0.0015990629 -0.00059042074
0.0013683517 -0.00052237196 -0.0027610303 0.0001681603 0.0026181594 -0.0021097006 -0.0010288344 -0.00017349003
-0.0002710109 -0.00084773864 0.0024690994 -0.0021524979 0.0020812682 -0.00046715548 -0.0015603411 0.00012315344
-0.00020158311 -0.00013114262 0.00059399044 0.0018182414 7.052833e-06 -0.0026871136 -0.0017371187 0.0002492055
0.0016221782 -0.00060935866 0.00020193518 0.00018140255 -0.0015358771 0.002541475 0.0006650763 -0.00017130165

l1.0.bias f4 [8]
00000000: c588 bfbd f0cb 5e3d a7d7 6b3a d089 ac3f
00000010: 5875 16be 7253 9ebd c135 75bd 6f6a babc
-0.093522586 0.05439371 0.0008996673 1.3479557 -0.146932 -0.0773076 -0.059865717 -0.02275583

l2.0.weight f4 [4, 8, 5, 5]
00000000: 817b f6bb 5cdd 3ebc ef23 78bc 1d82 50bb
00000010: 0371 803c 4917 f43b ac54 c53b 5d31 523e
00000020: 3614 2a3f 3d34 253f b4a4 6bbb 8ae5 fa3b
00000030: 9491 f93e 44d8 9c3f d277 3c3f 984a b03b
00000040: 621b be3c 8d6e 143f a9cc 573f f52e 2d3e
00000050: ca4b 203d b71e c13d e330 2d3e 3ba4 d1bb
00000060: 228f f5bc 91c6 deba c909 abb8 28af 80b9
00000070: f1b2 4d3a 957c 7639 dcfb cc38 4255 2d3a
00000080: 49b6 bab8 b40e 363a 8b62 1239 f907 f439
00000090: 7abb 9239 fa38 813a 5161 033a 206e 4aba
000000a0: 9199 90ba 847e 8839 0769 0fba 0d59 fd39
000000b0: d78c 943a f018 60b8 0033 3138 8c59 73b7
000000c0: 7631 42ba e96a b339 4843 e83a b07e c138
000000d0: 0e01 88b9 5eea 143a 405a b937 35fb deba
000000e0: dc26 6fb9 12fc 9a3a a8a1 e0b8 d05e ffb9
000000f0: fa9c 0dba 5be4 be3a 4265 8db9 616e a73a
00000100: e471 75b9 9af1 5eba ecb9 b4b9 548a 54b9
00000110: e13d 4a3a 88ba a4ba d205 b4b9 8c84 a737
00000120: 308f 12bb 36a6 b0b9 a8dc d3ba aad7 8f3c
00000130: 5060 91b9 ae72 1abc 959c edbe 1cb9 54bc
00000140: 0031 e13b c35b e0bd 4f9f 38be c467 3abd
00000150: cda7 e1bd 095a fdbc 26a4 f3bc 9367 593b
00000160: 9e1e 423b d4e2 32bd fac0 9b3c 56e9 923d
00000170: 1484 423d b92f b83b bf6d cd3b 9a98 a4bb
00000180: 4a0f 0e3e 2a70 ed3d 9afb ff3d 2d79 aa3c
00000190: bcf2 0e3b c581 a43a 584d deba 2a82 8c3a
000001a0: 00d1 2239 a343 773a 4cd0 5fba 85d8 29bb
000001b0: 90b3 d03a 3f3f bcb9 5e21 e6b9 e816 cfb9
000001c0: 6216 493b 4c75 993a d419 863a 85ca 8d3a
000001d0: 4099 7cbb 5bb8 153b 70da 94ba d092 383a
000001e0: 306e 84ba 0786 823b 1022 98ba 7809 0fb9
000001f0: 32f6 d03a aa7b fa39 6068 6038 cace 263b
00000200: f808 e739 6d06 0cba d910 25ba b7f5 74ba
00000210: cea6 433b dc31 a738 90db 7139 ecad 423b
00000220: 215f a739 9e68 91ba 7c54 da3a face e039
00000230: 1efa 3eba 941a 863a 9c06 a238 40af dab7
00000240: 0ab0 88bb c192 16ba fcce 20ba 884d 5739
00000250: ec29 0d3a 958e aa3a 4054 c5b8 aca6 e639
00000260: 6091 8e39 c72e 98bb 6df6 d239 5638 243a
00000270: 608b 2eb9 c84d a53a a07a f537 2bcc 8eb9
00000280: 467e 223a 6bb0 a93a 420a f9ba b7fa f63a
00000290: 5040 593a e05a 91b7 bc09 97b9 4005 b4b8
000002a0: 07f3 daba 070f 3a3b 434d 05bb a1f4 d63a
000002b0: 51bb 83ba f521 8aba 181a 10ba b7ca 53ba
000002c0: e05e a839 2ec0 60ba aecf 8d39 32d3 8eb9
000002d0: 631c 55ba 8ec7 833b ec04 3fb8 8b39 f139
000002e0: da67 8a3a 9cdb 8aba 5a13 5b3a fa5c 0abb
000002f0: 743f ca3a c85a af3a e0cd d2b7 84c7 a33a
00000300: db40 10bb b46f 613a 0c2c ac3a d458 8339
00000310: bd22 f23a 4661 adb9 fc9b 4eba 09cf 26ba
00000320: deec 8039 3cd6 a7ba 3183 5c3a b0c3 a2b9
00000330: d460 f4ba af6d de3a ac8a 6b39 e011 46b8
00000340: ddb6 d8b9 7cd9 5f39 9aca 513a 6c3c f739
00000350: 4626 053a 20a4 02bb d65e 7aba abc6 0fbb
00000360: d901 163b 3089 d039 881e 02bb c0d7 0ab8
00000370: 2e5c 763a a1e9 133b 4a87 65ba d23d 9f39
00000380: 5c27 63ba aad3 cf3a 180b 343a 5073 663a
00000390: 7d7c 83ba 4623 273a d2ed 9939 eafd 253a
000003a0: 28bc a6b9 406f db37 ba11 283a 6a97 9a3a
000003b0: a002 84b8 31b6 b63a 7570 02ba 1690 563a
000003c0: 913e 9fba a3d6 a8ba a6a7 023b 5840 d638
000003d0: 0945 423a 007e e035 b141 02bb ce65 913a
000003e0: 1d87 cf3a 9029 203b ba53 7cba 0383 3d3a
000003f0: f309 90ba 524b 58ba df87 82ba 70a2 bc39
-0.007522047 -0.011649456 -0.015145286 -0.0031815835 0.015678888 0.007449065 0.0060220566 0.20526643
0.6643709 0.64532834 -0.0035956325 0.0076567577 0.4874388 1.2253499 0.7362033 0.005379986
0.023206417 0.5798119 0.8429666 0.16912444 0.039134778 0.094296865 0.1691318 -0.0063977516
-0.029975478 -0.0016996433 -8.155738e-05 -0.00024544564 0.0007846794 0.00023506799 9.7743905e-05 0.00066121307
-8.9031244e-05 0.000694494 0.00013960355 0.00046545247 0.0002798697 0.0009858899 0.00050117547 -0.00077220984
-0.0011032094 0.00026034203 -0.00054706674 0.00048322268 0.0011333477 -5.3428987e-05 4.2247586e-05 -1.4504778e-05
-0.0007407883 0.00034221195 0.0017720247 9.2265545e-05 -0.00025940727 0.00056806754 2.2095744e-05 -0.0017012121
-0.00022807292 0.001182439 -0.00010711263 -0.0004870803 -0.00054021145 0.0014563905 -0.0002696906 0.0012773984
-0.00023407448 -0.00085046294 -0.00034470798 -0.00020269427 0.0007714909 -0.0012567798 -0.00034336612 1.9969673e-05
-0.0022363178 -0.00033693173 -0.0016163783 0.017558891 -0.00027728314 -0.009426756 -0.46408525 -0.012983587
0.0068722963 -0.10955002 -0.18029521 -0.045509115 -0.110183336 -0.030926721 -0.029741358 0.0033173307
0.00296203 -0.04367335 0.019012917 0.071734115 0.04748924 0.0056209234 0.0062691863 -0.0050230743
0.1387302 0.11593659 0.12499161 0.020809734 0.0021812161 0.0012550881 -0.0016960306 0.0010719944
0.00015527382 0.0009432381 -0.00085378136 -0.002591641 0.0015922654 -0.00035905276 -0.0004389388 -0.00039499183
0.0030683507 0.0011707931 0.0010231086 0.0010817802 -0.0038543493 0.002284548 -0.0011356603 0.000704092
-0.0010103639 0.0039832625 -0.0011606831 -0.0001364107 0.0015942513 0.00047775853 5.350297e-05 0.0025452846
0.00044066436 -0.00053415337 -0.0006296761 -0.00093444757 0.0029854062 7.9724676e-05 0.00023065344 0.0029705716
0.000319236 -0.00110938 0.0016657258 0.0004287882 -0.0007285195 0.001023131 7.725993e-05 -2.6069232e-05
-0.004171376 -0.0005743914 -0.00061343587 0.0002053288 0.000538497 0.0013012463 -9.409385e-05 0.000439932
0.00027192663 -0.004644248 0.00040237923 0.0006264498 -0.00016645854 0.0012611682 2.9263378e-05 -0.00027236468
0.0006198626 0.0012946253 -0.001900025 0.0018843029 0.00082874764 -1.7327664e-05 -0.00028808217 -8.584047e-05
-0.0016704508 0.0028390305 -0.002034024 0.0016399809 -0.0010050331 -0.0010538684 -0.00054970523 -0.0008079218
0.00032114144 -0.0008573559 0.0002704835 -0.00027241703 -0.0008129535 0.0040215915 -4.5542532e-05 0.00046009975
0.0010559515 -0.0010594013 0.00083570706 -0.0021112547 0.0015430287 0.0013378495 -2.5129819e-05 0.0012495373
-0.0022011313 0.0008599714 0.0013135686 0.0002505245 0.0018473488 -0.00033069606 -0.000788152 -0.0006363248
0.00024590542 -0.0012804936 0.0008411883 -0.00031044846 -0.001864458 0.0016969944 0.00022463006 -4.7223526e-05
-0.00041334974 0.00021347956 0.0008002907 0.0004715653 0.00050792505 -0.0019934252 -0.0009550875 -0.0021938484
0.0022889285 0.00039775064 -0.0019854624 -3.3102697e-05 0.0009397891 0.0022569674 -0.00087558164 0.00030372903
-0.0008665228 0.0015855927 0.0006868108 0.00087909866 -0.0010031607 0.00063758006 0.00029359624 0.00063320866
-0.00031802175 2.615864e-05 0.0006411333 0.0011794392 -6.2947394e-05 0.0013939795 -0.0004975864 0.00081849226
-0.0012149384 -0.001288135 0.0019936352 0.000102163 0.00074108 1.6725971e-06 -0.001987558 0.0011092962
0.0015833114 0.0024438836 -0.00096255133 0.00072293 -0.0010989293 -0.00082509697 -0.0009958706 0.0003597918

l2.0.bias f4 [4]
00000000: df4e 71bf 8aa8 d6bd 0960 91bf f3e7 32be
-0.9426097 -0.10481365 -1.1357433 -0.17471294

fc.weight f4 [10, 64]
00000000: 3551 d9bc 37ff 84bc 1a51 5f3c 56e9 c4bb
00000010: 503c 87bc 0d25 7dbc e43b 573c 8470 cc3a
00000020: 98c5 afbe b761 55bc 6bbe 7cbc bc35 0bbd
00000030: eb2b b4bc 5405 d63b f8d9 543d 66a1 e83b
00000040: 6ee1 92ba 70dc b3ba f831 33ba c2fe a23a
00000050: 9821 933a acde 063a 9c84 c939 4084 08b9
00000060: 4a75 7dba 8cfc e3b8 b0bb 5839 441e 8ab9
00000070: b876 f0b8 d050 50ba ef00 cfba c1ee 173a
00000080: fe47 39bb 4df5 82bc 7122 54bc 7f70 8e3d
00000090: 9945 89bb bc8d 6dbc 1080 3fbc 3c3c 94bc
000000a0: 40b2 0cbc 6f92 25bc a7e7 06bd c58b afbc
000000b0: 48e4 903c ea4c d13d 24fd d33b 5a3d 9a3b
000000c0: 78c9 3c3b 9210 a83c abe4 193d 85ac d83d
000000d0: f877 9d3d 8fb8 cdbe 900d 97bd f834 673e
000000e0: 1112 d83c 9105 17be fc00 773c 206d 7ebb
000000f0: 85a0 273e e655 eb3d 3d41 f8bb 03e8 c9bc
00000100: 338f 0c3c a5a7 36bd 23a9 8bbe 3e3a b8bb
00000110: 71b6 fc3a 4858 6f39 4c76 92ba 5b60 b7bb
00000120: 0108 84bb ef65 f0bb 3f39 563b 4607 77bb
00000130: 2c7c b1bb ad6d b43c 0c71 e33c 385b a2b9
00000140: 0fcf 0aba 73fc 3d3a de6c daba 3637 d53a
00000150: 90d8 8fba 2263 40ba 1024 df39 7c5e ec3a
00000160: b039 89b8 f85c 4b39 cd82 9b3a 61f7 49ba
00000170: c3ac 1bba 8688 baba 4296 bc3a b935 3e3b
00000180: baf9 76bc 8822 87bb 0f34 b9bc a654 9cbe
00000190: f800 0f39 007c 94b7 9298 c839 fe17 72bb
000001a0: 8243 cfbb aca6 99ba 44f1 92bb 426d 613b
000001b0: 72a6 463a 5be8 66bc 3c48 633d ccf7 bc3b
000001c0: efda 6cbe 8220 9e3d 31fd 25bc 0db5 0bbd
000001d0: a03d 8ebe f55c 9e3e 218c 4abe 1080 c639
000001e0: 1d24 1dbd 4133 2fbb 4e1f 39be 8e64 c2bb
000001f0: 90e1 8f3a e0e5 8dbd 2ed6 373d 46ae 0dbb
00000200: 730a 823e 8542 e23d 6c5b 8fbb e29b 83bc
00000210: 6485 883e f12d bd3d c874 683c df35 39be
00000220: 31af cabc 6452 f73b 210c acbd a22a f6bc
00000230: aca7 1abe 8cfd cc3b d4e6 be39 6469 c23e
00000240: 90b2 0eb9 de26 baba 504f e039 e1dc 8e3a
00000250: e49d b83a c96a 48bb 3a08 b9b9 7456 cd3a
00000260: 471a f639 94b9 93ba 56e2 553a a0c7 00b9
00000270: 2c48 b03a 8093 433a 344e 8eba ee55 ccb9
00000280: 49d2 6cbc 7667 98bb 0fd7 043c d0ee 943c
00000290: 5d50 96bc 0051 a5bc d079 a6bd 9483 d1bb
000002a0: 797f 263c 21d5 aa3c b76f 103d 8af8 dd3b
000002b0: e378 a93d c48f 443d 0271 393c 36bf 733e
000002c0: 67a7 18be 4080 17be fd45 e9bc 9c0a 9bbc
000002d0: 1cee af3c 87ae bcbd 6068 83bb 9867 b8ba
000002e0: 6d93 313e 106d a3ba af43 b53c e90f c03c
000002f0: 7a3d 283b 5a87 0e38 c200 f13d 965a 263e
00000300: bcb2 1b3e 95b6 d43d f0e5 9fbc 4098 82be
00000310: 350d 873e bc0d 003c 6706 dd3b 8783 2a3d
00000320: ea03 5eba 36d0 413e 2c69 f73d 8001 ac3b
00000330: 3060 db3d 43e2 0e3e cafe 9e3a 9317 31be
00000340: ff2a 2fba 26a3 d83a 9284 07bb 2d84 303b
00000350: 08e7 95b9 b348 8bba ef2d dfba 4d0e 453b
00000360: 1eee f33a cccf 10ba 3eab c8b9 446b 1dbb
00000370: b9d1 2abb c031 243a ec72 e439 f399 55ba
00000380: 72e7 ef3c bf8c 1b3c a6e0 4d3c 922c 8a3c
00000390: fa3a edbc a7d9 b1bc 700b a2ba ac0e bc3b
000003a0: 101f c9bc a648 0a3c 6798 ff3b 946c febb
000003b0: ba68 a23d d239 133b 0c2a 5b3c 2f35 453d
000003c0: bc02 61be 8694 333d 6b1d 343d 96ae dd3c
000003d0: 76cd a9bd 4fee b43c 1a81 76bc 592d 7dbd
000003e0: 07ed d8bd 5403 94bd f2e9 cb3b 437d a83c
000003f0: 5a61 d73d dcd5 3c3d 7419 fa38 858c cdbc
-0.02652798 -0.016234977 0.013630176 -0.006009261 -0.016508251 -0.015450728 0.013136838 0.0015597497
-0.3433044 -0.013023785 -0.015426259 -0.033986792 -0.021993598 0.006531397 0.051965684 0.0070993183
-0.0011206099 -0.0013722312 -0.0006835754 0.0012435543 0.0011225222 0.0005144875 0.0003843651 -0.00013019238
-0.00096686615 -0.00010871244 0.00020669284 -0.0002634396 -0.00011466205 -0.00079466123 -0.0015793125 0.000579577
-0.002827167 -0.01598611 -0.012947665 0.06955051 -0.004189205 -0.014499124 -0.011688247 -0.018095128
-0.00858742 -0.010105713 -0.032935765 -0.021428952 0.017686978 0.10219748 0.0064693857 0.0047070207
0.0028806608 0.020515714 0.03757159 0.105797805 0.07688898 -0.4017987 -0.07375634 0.225788
0.026375802 -0.14748217 0.015075918 -0.0038822368 0.16369827 0.11490993 -0.0075761364 -0.024646765
0.008579063 -0.044593472 -0.2727748 -0.0056221774 0.0019280446 0.00022825703 -0.0011174171 -0.0055962033
-0.0040292745 -0.00733637 0.003268793 -0.0037693544 -0.005416414 0.022024954 0.027763866 -0.0003096701
-0.00052951364 0.00072473957 -0.0016664525 0.0016267064 -0.0010974575 -0.00073389907 0.00042560743 0.001803353
-6.543414e-05 0.00019394222 0.0011864543 -0.0007704404 -0.0005938524 -0.0014231361 0.0014388042 0.002902372
-0.015074188 -0.0041239895 -0.022607831 -0.30533332 0.00013637904 -1.7700717e-05 0.00038260646 -0.003694057
-0.006325186 -0.0011722646 -0.0044843275 0.0034397398 0.0007577903 -0.014093484 0.05548881 0.0057668444
-0.23130392 0.07721044 -0.010131166 -0.03410821 -0.2778139 0.30930296 -0.19780017 0.00037860917
-0.03836452 -0.002673343 -0.18078348 -0.005932397 0.0010977257 -0.06928611 0.044881992 -0.0021618768
0.25398597 0.11047844 -0.004374912 -0.016065542 0.2666427 0.09237278 0.014187999 -0.18086956
-0.02474174 0.0075476635 -0.08400751 -0.030049626 -0.15103024 0.006255811 0.00036411604 0.37971032
-0.00013608695 -0.0014202257 0.00042783702 0.0010899567 0.0014085141 -0.0030581227 -0.0003529208 0.0015666024
0.00046940355 -0.0011270517 0.0008159032 -0.00012281397 0.0013449243 0.0007460639 -0.0010857047 -0.00038973935
-0.014454433 -0.0046510054 0.008107915 0.01818028 -0.018348867 -0.020180225 -0.08128703 -0.006393859
0.010162228 0.02085358 0.03526279 0.006774013 0.082750104 0.047988668 0.011318447 0.2380341
-0.14907609 -0.14795017 -0.028475756 -0.018925957 0.021475844 -0.09212976 -0.004010245 -0.0014068959
0.17341395 -0.0012468416 0.022127 0.023445087 0.0025671409 3.3981494e-05 0.11767723 0.16245493
0.152049 0.10386387 -0.019518822 -0.25506783 0.26377264 0.0078157745 0.006745148 0.04162934
-0.0008469211 0.18927082 0.12080607 0.0052492023 0.10711706 0.139535 0.0012130376 -0.17294149
-0.0006682127 0.0016528114 -0.0020678383 0.0026934252 -0.00028591626 -0.0010626524 -0.0017027239 0.0030068338
0.0018610393 -0.0005524128 -0.00038274558 -0.0024020234 -0.0026064946 0.0006263517 0.00043573172 -0.00081482454
0.029285166 0.009494006 0.012565767 0.016866956 -0.028958786 -0.02171023 -0.0012363028 0.0057390537
-0.024550945 0.008440172 0.00780015 -0.0077644084 0.07930131 0.0022464884 0.013376724 0.048146423
-0.219737 0.043842815 0.043973368 0.027060788 -0.08291142 0.02208629 -0.015045429 -0.061810825
-0.105920844 -0.07227197 0.006222957 0.020567542 0.10516615 0.04610239 0.0001192567 -0.025091419

fc.bias f4 [10]
00000000: b13f 233f 3753 0340 55c1 3dbf fb11 d6bf
00000010: fc34 403f f48c 83bf 486b 7f3f e0ef 0c3f
00000020: 909d adbe 6bd6 ccbd
0.6376906 2.051954 -0.74123126 -1.6724237 0.7508085 -1.027739 0.99773073 0.5505352
-0.33909273 -0.100018345
