docs/_static/data.pth (torch, 65528 bytes, 4 tensors)

l1.weight f4 [20, 784]
000000 74 42 d4 3c d4 40 07 bc 2c 47 19 3a 05 d5 c6 3c
       0.025910594 -0.008255202 0.0005847092 0.024271498
000010 e0 ed d5 bc d1 f7 ec 3c 5e d1 28 39 20 5a d2 3c
       -0.026114404 0.028926762 0.00016099724 0.02567774
000020 8b 5c 4c 3c f5 79 4d 3b f6 a7 8e 3c ed e1 17 3c
       0.012473236 0.003135321 0.017414074 0.0092701735
000030 c9 3b c4 3c ad 9c 88 b6 66 b5 a0 3b ca ac 8c 3b
       0.023954289 -4.0713553e-06 0.004904437 0.004293059
000040 57 d4 4f 3c 72 5b f1 3b d7 a1 1e 3d b1 8d 98 3c
       0.012684903 0.0073656375 0.03872856 0.018622251
000050 2c ca bd bb 19 63 66 bc 25 80 c7 3a 30 61 01 bc
       -0.005791923 -0.014061713 0.0015220685 -0.007896706
000060 fa fb 80 bb a9 08 17 3c f4 ea eb 3c 17 88 dc 3c
       -0.003936288 0.009218373 0.028798558 0.026920361
000070 bc 7e e0 bc 07 e1 f2 3c f9 3d 8f 3c a5 83 29 3d
       -0.027404182 0.029648317 0.017485606 0.04138531
000080 d1 a1 fe 3c ad 09 cd bc 29 79 6b bc 39 02 45 3c
       0.03108302 -0.025029028 -0.014372149 0.012024456
000090 26 09 70 3d e8 81 08 3c 5b 0f e0 3c 2f 8f 8f bb
       0.058602475 0.008331753 0.027351072 -0.0043810825
0000a0 82 14 86 3d b2 f1 9d 3c c1 5a 97 3d f2 ce 66 3d
       0.0654688 0.019280288 0.07390357 0.056349702
0000b0 7c b2 8d 3b 2b 5d 25 3d 2d 55 80 3b ca 95 2d 3d
       0.0043242555 0.040372055 0.0039164037 0.042379178
0000c0 e7 d2 8d 3c 37 1c 12 3c 70 67 b3 bc 98 3e 80 bb
       0.01731248 0.00891786 -0.021899909 -0.0039137118
0000d0 7b 44 dc 3c ae bf 99 ba 45 76 30 3d dd 03 14 3d
       0.026888123 -0.0011730099 0.04308154 0.036136497
0000e0 39 3c bf 3b 36 c7 85 bc 7b ae ef 3c 4c 69 98 3c
       0.0058360365 -0.016330343 0.029258003 0.018604897
0000f0 42 86 7d bc 5d 1d fd 3c 21 97 12 3d f7 c6 84 3d
       -0.015473904 0.03089779 0.03578866 0.06483262
000100 53 df 4f 3b 38 af 98 bc 97 ec 21 bc e0 ca 09 3d
       0.0031718805 -0.018638238 -0.009883068 0.033640742
000110 b1 d7 ea 3c 35 31 2d 3d 54 60 26 3e f3 93 31 3e
       0.028667303 0.042283256 0.16247684 0.17341594
000120 eb 78 5f 3e 1a 66 3f 3e 94 d2 35 3e 61 4b 26 3e
       0.2182347 0.18691292 0.1775611 0.16239692
000130 34 3b e2 3d c6 b5 97 3d 21 67 70 3c e1 d4 21 3d
       0.11046448 0.074077174 0.014673025 0.039509658
000140 ae 8c 80 bc 85 22 9f bc 05 9a 1e 3c a5 6e ba 3a
       -0.015692081 -0.01942564 0.009680276 0.0014223648
000150 90 57 e9 3c 65 dc 57 bc 87 17 c6 bc 4f 24 0d 3d
       0.028484136 -0.013175105 -0.02418114 0.034458455
000160 13 fd 60 3c ef 58 9d 3c 43 7f b8 3c d3 4e 1a 3b
       0.013732213 0.019207446 0.02252162 0.0023545518
000170 4a b5 97 bc 96 78 bf bd fd 95 30 be da 8b 23 be
       -0.018519063 -0.09349172 -0.17244716 -0.15971318
000180 d7 38 e8 bc 88 13 90 3d 51 93 48 3d d1 32 15 3e
       -0.028347416 0.07034975 0.048968617 0.14570166
000190 ee a3 2e 3e 70 db ee 3d 6a 7f 63 3e 51 ed a0 3e
       0.17054722 0.11662948 0.22216573 0.31431058
0001a0 0d cf 83 3e 09 4b 5b 3e a8 7f 31 3e a1 bb a4 3d
       0.25743905 0.21415342 0.17333853 0.080436
0001b0 4c 71 8b 3d 5c bc ae 3c a0 51 a7 3c 09 06 0c 3d
       0.06808719 0.021330051 0.020424664 0.034185443
0001c0 e3 76 29 3d ed a3 84 bc 3d df 45 3c 8d 6b 0c 3d
       0.041373145 -0.016191447 0.01207715 0.034282256
0001d0 87 72 d4 3c b8 43 0e 3c 54 93 5c bd 2d 40 a3 bd
       0.025933517 0.008683138 -0.05385144 -0.07971225
0001e0 66 8d f3 bd 9c 72 8f bd 66 85 ca 3c a0 e1 dc ba
       -0.11892204 -0.07004282 0.024721812 -0.001685191
0001f0 95 2c aa bc 85 de e1 bc c0 87 3c bc 66 e3 21 3e
       -0.020773211 -0.027571926 -0.011506975 0.15809402
000200 c9 a5 fb 3d 46 75 ae 3d 4c ec e5 3d 3f 43 0d 3e
       0.122874804 0.08518462 0.11226711 0.13795184
000210 3e 2f 0f 3e 05 ad 87 3e f6 a6 46 3e a6 5f e2 3d
       0.13982865 0.2649919 0.19399628 0.110534
000220 ce 57 9e 3d ee 7b 28 3d 38 b5 6d bc 50 2e b8 bc
       0.07731591 0.041133814 -0.014508538 -0.022483021
000230 bc 1b 11 bc e9 83 5b 3b 00 aa 7a bc 94 59 7c 3c
       -0.00885671 0.0033495373 -0.01529932 0.015402216
000240 12 57 ca bc b6 0b 38 bd 5c dc ce bd fb df be bd
       -0.024699721 -0.044933043 -0.10100624 -0.09320065
000250 51 de 82 bd 85 67 8f 3c c8 a9 01 bd a4 07 7d bc
       -0.0639006 0.017505417 -0.031656057 -0.015443716
000260 5d ec 90 bc 70 d7 d5 bb 28 09 c1 bc 44 53 ce 3d
       -0.017690832 -0.0065259263 -0.023563936 0.100744754
000270 8b 8c 51 3d c3 65 ca 3c 0b ec 05 3e a7 03 6b 3d
       0.051159423 0.024706727 0.13078324 0.05737653
000280 49 bf 9f 3d a5 48 d5 3d b9 71 21 3e 42 ab 18 3e
       0.078001566 0.104142465 0.15766038 0.1490908
000290 e9 3d 8b 3d 5b b4 5c 3d 91 34 b8 bb 44 96 d3 b9
       0.06798918 0.053882938 -0.005621501 -0.00040357013
0002a0 ae a5 ab bc c5 a9 0f bc 62 36 4a bb c6 e6 e4 bc
       -0.020953026 -0.008768504 -0.0030855169 -0.027942073
0002b0 f1 4d 70 bd c0 8f a4 bd 11 ac a7 bd a3 41 2a bd
       -0.05866808 -0.08035231 -0.08187116 -0.041566502
0002c0 f5 20 95 bd 4c 3e b6 bd 3e 25 88 bc ed ff 9b 3d
       -0.07281677 -0.08898601 -0.016619321 0.07617173
0002d0 37 1e 2f 3d d5 8a 01 3d 41 c1 9b 3d 40 c1 f7 3d
       0.042753424 0.03162654 0.0760522 0.120974064
0002e0 7c 82 c6 3d f5 68 0a 3e db cd cb 3d f9 8b 00 3e
       0.09692857 0.135166 0.09951373 0.12553395
0002f0 34 30 1e 3e 89 a4 d4 3d 5a de 19 3e 7f b2 a8 3d
       0.15448076 0.10382945 0.15026227 0.082371704
000300 78 5f 04 3e be 33 0e 3e 65 11 3e 3d 08 43 6a bc
       0.12927043 0.13886926 0.046403307 -0.014298208
000310 14 54 c7 3c 47 ce 00 3d ad f1 b0 3c 86 af b4 bd
       0.024332084 0.03144672 0.021599615 -0.08822541
000320 1c 98 16 be 0e 9a f5 bd f5 5f 0d be 13 d0 3c bd
       -0.14706463 -0.11992274 -0.13806136 -0.046096873
000330 01 45 97 bd 2f 93 4e bd 86 63 69 3d 84 e4 0b 3c
       -0.07386208 -0.050433334 0.05697968 0.008538369
000340 6d 23 d8 3c 93 ca 6c 3d 3c a4 1a 3e f2 b8 27 3e
       0.02638408 0.057810377 0.15101713 0.16379145
000350 0e 70 37 3e e5 3e 2b 3e 63 86 39 3e fa 3c 5e 3e
       0.17913839 0.16723211 0.1811767 0.21702948
000360 c2 65 5f 3e 1d 4f c4 3d 0e 18 00 3e 5d 5e 1c 3e
       0.21816161 0.09585402 0.12509176 0.15270372
000370 c0 85 d4 3d fc 97 0b 3e 6e 37 5d 3c f8 7f 71 bc
       0.10377073 0.13632196 0.013501985 -0.014739983
000380 4f 48 ce 3c 67 f8 90 bc 2a 45 ff bc 6e c5 02 bd
       0.025180964 -0.017696572 -0.03116091 -0.031926565
000390 19 e5 21 be f4 aa d0 bd 6e 0b 02 be 8b 1e 8e bd
       -0.1581005 -0.10188857 -0.12699673 -0.06939419
0003a0 5e cd de bc c5 ab 41 bb 07 76 c7 3b 8c 11 47 3d
       -0.027197536 -0.0029551846 0.006087068 0.04860072
0003b0 05 fc 0b 3d 5e 52 92 3d 73 ff 83 3d 2e 7d be 3b
       0.03417589 0.071446165 0.064452074 0.0058132624
0003c0 80 c8 0e 3b 6f f7 13 bd a4 09 8f bd e2 a8 63 bc
       0.0021786988 -0.036124643 -0.06984261 -0.013895245
0003d0 1c 9b 1b 3d 4c bb 41 3d 4f 8d e2 bb 5d 77 d3 bc
       0.03798972 0.04729776 -0.006913818 -0.025813753
0003e0 d2 4b d6 3c be b0 4f 3d e8 61 5a 3d 2a 3e e0 ba
       0.0261592 0.050705664 0.053316027 -0.001710837
0003f0 ad d2 15 3c 61 27 c3 3c 3a ff 37 bc 0f 4f a5 bd
       0.009144467 0.023822488 -0.011230284 -0.0807172

l1.bias f4 [20]
000000 b3 c2 3f bc 1f 6b b6 bc d8 99 a3 3c b4 b4 70 bc
       -0.011704135 -0.022267876 0.01997082 -0.0146915205
000010 74 a1 c8 bb d8 7e 16 bc b7 ba 5c 3d a8 b2 42 3d
       -0.0061227623 -0.009185515 0.053889003 0.04753366
000020 a4 ea b2 3c dc ed 2e 3c 6f db 66 bc 4d ba 13 3d
       0.021840401 0.010676827 -0.014090403 0.036066342
000030 d9 4b a5 bb a6 f5 7f 3c 94 04 28 3d be 71 61 3d
       -0.005044442 0.015622532 0.04101999 0.055040114
000040 22 8b b3 3c f7 16 c8 bc d9 8b 49 bc e1 a9 93 bc
       0.02191693 -0.024425013 -0.012301409 -0.01802534

l2.weight f4 [10, 20]
000000 4f c8 68 be 04 91 65 be 18 98 f4 be 78 ea 99 3e
       -0.22732662 -0.224186 -0.47772288 0.30061698
000010 2d 9d ce be 8d 98 9c be 28 f9 0a 3e d3 c1 df bd
       -0.4035429 -0.30585137 0.13571608 -0.10925641
000020 8e 15 06 bd 79 21 fc be ba e3 0d bf 07 92 64 3d
       -0.0327354 -0.49244288 -0.5542561 0.055803325
000030 18 8e 49 be d2 ac 55 be 1f ca a9 3d 2c 77 89 3e
       -0.1968311 -0.20866707 0.08290505 0.26848733
000040 68 9e 2d 3e b0 bc 02 3e 59 f4 8b be 54 5b 84 be
       0.16954958 0.12767291 -0.2733486 -0.25850928
000050 2e 13 66 3e 1c a0 e9 be ac 25 28 3e c1 9b 91 be
       0.22468254 -0.45629966 0.1642062 -0.28439143
000060 a3 0a d0 3c 50 fc a4 3e e8 30 04 be 2f 95 4c be
       0.025395697 0.3222375 -0.12909281 -0.19978784
000070 eb bd cc be 4c b2 66 be 00 4c 99 3d 65 86 c8 3b
       -0.39988646 -0.22528952 0.07485199 0.0061195367
000080 16 1e 1a bf 17 fa 4f 3e be f5 dc be d5 53 e8 be
       -0.6020216 0.20310245 -0.43156236 -0.4537646
000090 87 c8 36 3e c5 3b 1d be 3e 2d 32 3e 0d b2 89 3e
       0.17849933 -0.15354832 0.17400071 0.26893654
0000a0 29 98 1c bf d1 b0 ef 3d db 85 89 3e 83 82 07 be
       -0.6116968 0.11703647 0.26859936 -0.1323338
0000b0 d9 7f fa bc ed 38 92 3e 7a d7 73 3d af 0a 18 3d
       -0.03057854 0.28559056 0.059531666 0.037119564
0000c0 59 7f d6 3c e8 53 ba 3d 94 95 bb be ca 0d 2f 3e
       0.026183771 0.09098035 -0.36637557 0.17095104
0000d0 ef 3e c5 be 2f 4e 86 be f1 9b 90 be d0 36 33 3e
       -0.38524577 -0.26231524 -0.28243974 0.17501378
0000e0 79 6a bb 3e a2 dc 70 bc c8 57 49 be cb c7 51 bf
       0.3660467 -0.01470104 -0.19662392 -0.81945485
0000f0 eb 2d 21 be 70 93 0e 3d 1d 1f 52 3d 1f 08 bf bc
       -0.15740173 0.034808576 0.051299203 -0.023319302
000100 58 cc b1 3e 17 66 3d 3e 3f 1a 3b bb 5f 5e 47 3e
       0.34726214 0.18495975 -0.002854958 0.19469593
000110 f6 79 65 3e 25 cc 02 be 9d ed 95 be 8b 29 68 be
       0.22409806 -0.12773187 -0.29282847 -0.22672097
000120 6a e9 92 be 16 42 b2 be 3d 95 6c bd b2 cb 70 be
       -0.28693706 -0.34816045 -0.057759512 -0.23515204
000130 a7 c2 b0 3c 76 e3 72 be 66 df 15 3e 79 b0 ff be
       0.021577192 -0.23719582 0.14636001 -0.49939325
000140 75 bc 26 bf c9 f0 eb be 6b 02 bc be ab 38 bf be
       -0.6513131 -0.46082142 -0.36720595 -0.37347922
000150 c5 55 25 be e6 9c 01 bf 6f ea b6 bd 69 63 ae bb
       -0.16146 -0.50630033 -0.089314334 -0.005321909
000160 09 b7 c6 3d ce 4a 8e bb 69 9c 55 3e 67 0f 25 bf
       0.0970288 -0.0043424135 0.20860447 -0.6447663
000170 c6 6f 9c 3e 37 f8 e6 3d 2d a9 6b be a5 aa ad 3d
       0.30554026 0.11277812 -0.23013754 0.084798135
000180 92 00 4b bf c4 66 3b 3e 01 f5 f9 bb ba 26 13 3c
       -0.79297745 0.1830092 -0.0076280837 0.008981401
000190 f6 94 e3 3e a1 29 5e 3d c1 cb cd be e2 33 3c be
       0.44449586 0.05423892 -0.40194514 -0.18379167
0001a0 92 89 55 3e 4d 3e a9 be 70 fe c8 be 74 6f a7 be
       0.2085326 -0.33055344 -0.3925662 -0.3270222
0001b0 ce 7e 43 3d c0 3c 28 bd 2a c3 3d bf 54 6f 72 bc
       0.047728352 -0.04107356 -0.7412592 -0.0147970505
0001c0 ff 7b 0b be a5 83 e2 3d fa f3 4e 3e 2f 79 d7 bc
       -0.1362152 0.110602655 0.20210257 -0.026302902
0001d0 97 d4 1d 3d e1 53 10 be 62 4e b1 bd 5e fc af 3e
       0.03853282 -0.14094497 -0.086575285 0.34372228
0001e0 69 3c a9 3e 2f 77 4a bf 34 75 6a be 0f 83 f6 3c
       0.33053902 -0.7908811 -0.22896272 0.03009179
0001f0 5e 5a 45 bf 8f 7d 4c be 64 13 f3 be 2b 16 04 3e
       -0.77091014 -0.19969772 -0.4747573 0.12899081
000200 c4 bc 1f bf c2 74 24 3e c0 9c ab be 51 5c de 3e
       -0.6239741 0.16060165 -0.33518028 0.43429807
000210 1e ed c6 be a9 1a 67 bc aa 03 05 be 2f fd d1 3d
       -0.3885278 -0.014105477 -0.12989679 0.10253369
000220 5e 0a 11 be 35 13 87 3e e3 29 8e bd d3 b8 b4 bd
       -0.14164111 0.2638184 -0.06941583 -0.08824315
000230 d4 00 9c be b7 2d 38 3e 2b 26 6d 3e bf 2d 4c 3e
       -0.30469382 0.17986189 0.23159091 0.19939326
000240 ab 61 af bd 63 83 8d 3e c5 59 f6 3d 7f db 1c 3e
       -0.085635506 0.27639303 0.12028841 0.15318106
000250 78 d0 9e bd 0b db cc be 99 f6 c9 3d 3a 63 ad bd
       -0.07754606 -0.40010867 0.09861488 -0.084661916
000260 30 8a 39 3e 21 e1 5e 3e f4 c9 e9 bd 1f 12 fe be
       0.1811912 0.21765567 -0.114154726 -0.496232
000270 48 3d f7 bc a2 3f 85 be 47 fe e7 be 95 6a 2b be
       -0.030180588 -0.2602511 -0.45311186 -0.16739877
000280 20 4e 8a be ca fa a5 be e0 e2 f0 3c 7d 5e 95 b9
       -0.2701273 -0.324179 0.029405057 -0.00028489894
000290 28 65 e7 bd 63 bb 05 bf 59 9c 44 3e b2 c0 fe be
       -0.11298591 -0.52239054 0.19200267 -0.4975639
0002a0 cc 57 4a 3d 38 96 18 3e 56 6d a2 be f3 b9 d7 bd
       0.049400136 0.14901054 -0.31724042 -0.10533514
0002b0 a6 9e 7a be 97 9e 66 be 4f 1e b9 3d ca 05 93 be
       -0.24474582 -0.22521435 0.09038984 -0.28715354
0002c0 17 0d 03 3c e8 fd b9 3d 7f 27 8c 3e ed 01 6b be
       0.007998726 0.09081632 0.27373883 -0.22949953
0002d0 76 5c 54 be 17 86 b7 3d 5a 33 0d bf e1 17 42 3e
       -0.20738396 0.089611225 -0.5515648 0.18954422
0002e0 8f df fa bc 28 33 68 bf 20 65 4e be 59 c7 da bd
       -0.03062418 -0.9070306 -0.20155764 -0.10682554
0002f0 9b c8 e4 3d 90 67 d1 3d 2a 41 72 3d 4f 79 eb 3d
       0.11171075 0.10224831 0.059144177 0.11497747
000300 e0 8d 6f 3e b8 96 15 bf e3 7e 3e be 73 ed 41 be
       0.23393965 -0.58433104 -0.18603091 -0.18938236
000310 6a 1d 11 be 6a 1b c9 be 0a 46 d5 3d 09 86 dc 3c
       -0.14171377 -0.39278728 0.104137495 0.026919382

l2.bias f4 [10]
000000 fe da fe bd 40 20 3f bd bb 00 da bd 6f 45 fc 3c
       -0.12444113 -0.046661615 -0.106446706 0.030794827
000010 5f dd bd 3d 8a 32 21 be 26 1d 8f 3d 84 8f 32 be
       0.09270739 -0.15741935 0.069879815 -0.1743756
000020 90 bd 5a 3e be e3 e4 bd
       0.21361375 -0.11176251
